Model: "sequential"
_________________________________________________________________
Layer (type)                 Output Shape              Param #   
=================================================================
conv1d (Conv1D)              (None, 98, 256)           37888     
_________________________________________________________________
max_pooling1d (MaxPooling1D) (None, 32, 256)           0         
_________________________________________________________________
conv1d_1 (Conv1D)            (None, 30, 256)           196864    
_________________________________________________________________
dense (Dense)                (None, 30, 1024)          263168    
_________________________________________________________________
dropout (Dropout)            (None, 30, 1024)          0         
_________________________________________________________________
dense_1 (Dense)              (None, 30, 512)           524800    
_________________________________________________________________
dropout_1 (Dropout)          (None, 30, 512)           0         
_________________________________________________________________
dense_2 (Dense)              (None, 30, 256)           131328    
_________________________________________________________________
dense_3 (Dense)              (None, 30, 128)           32896     
_________________________________________________________________
flatten (Flatten)            (None, 3840)              0         
_________________________________________________________________
dense_4 (Dense)              (None, 1)                 3841      
=================================================================
Total params: 1,190,785
Trainable params: 1,190,785
Non-trainable params: 0
_________________________________________________________________
Batch size = 16
learn rate = 0.0001
Num epochs = 151

train:
RMSE:0.5158
R:0.978
p:0.0
R_spear:0.9772
NRMSE:0.0645
CCC:0.9658754970127609


test:
RMSE:2.1344
R:-0.0122
p:0.952
R_spear:0.0607
…
